…
p layers up to the last convolution layer, so the network looks like this :     Then I add a convolution layer:     and it raises the well-known error:     I really don t understand why ndim=2 is found for that new layer, it does not make sense to me, even doing      doesn t solve it. But I m still kind of new to Keras so there must be some subtlety I don t get yet. I m using Keras 2.1.5 with a Tensorflow backend.     ",
    "code": " Layer (type)                 Output Shape              Param #    ================================================================= input_1 (InputLayer)         (None, 224, 224, 3)       0          _________________________________________________________________ block1_conv1 (Conv2D)        (None, 224, 224, 64)      1792       _________________________________________________________________ block1_conv2 (Conv2D)        (None, 224, 224, 64)      36928      _________________________________________________________________ block1_pool (MaxPooling2D)   (None, 112, 112, 64)      0          _________________________________________________________________ block2_conv1 (Conv2D)        (None, 112, 112, 128)     73856      _________________________________________________________________ block2_conv2 (Conv2D)        (None, 112, 112, 128)     147584     _________________________________________________________________ block2_pool (MaxPooling2D)   (None, 56, 56, 128)       0          _________________________________________________________________ block3_conv1 (Conv2D)        (None, 56, 56, 256)       295168     _________________________________________________________________ block3_conv2 (Conv2D)        (None, 56, 56, 256)       590080     _________________________________________________________________ block3_conv3 (Conv2D)        (None, 56, 56, 256)       590080     _________________________________________________________________ block3_pool (MaxPooling2D)   (None, 28, 28, 256)       0          _________________________________________________________________ block4_conv1 (Conv2D)        (None, 28, 28, 512)       1180160    _________________________________________________________________ block4_conv2 (Conv2D)        (None, 28, 28, 512)       2359808    _________________________________________________________________ block4_conv3 (Conv2D)        (None, 28, 28, 512)       2359808    _________________________________________________________________ block4_pool (MaxPooling2D)   (None, 14, 14, 512)       0          _________________________________________________________________ block5_conv1 (Conv2D)        (None, 14, 14, 512)       2359808    _________________________________________________________________ block5_conv2 (Conv2D)        (None, 14, 14, 512)       2359808    ================================================================= Total params: 12,354,880 Trainable params: 0 Non-trainable params: 12,354,880 _________________________________________________________________  vgg16_model_ft.add(Conv2D(512, (3,3), padding= same , activation= relu ))  ValueError: Input 0 is incompatible with layer conv2d_1: expected ndim=4, found ndim=2  vgg16_model_ft.add(Conv2D(512, (3,3), padding= same , activation= relu , input_shape=vgg16_model_ft.layers[-1].output_shape)) "
…
